spiral_classification_model.pt (torch, 46960 bytes, 8 tensors)

linear_stack.0.weight f4 [128, 2]
00000000: 7543 903e 3d17 1d3f 348e 81be e1d2 2b3f
00000010: 3684 823d c346 233d b507 72be e06d 5fbf
00000020: a934 a3be 74ee a4be 33b3 7abe 910d 913e
00000030: 91cd 833e f334 9cbe 1657 ac3d cda6 25bf
00000040: 6e4e 9dbd 44c8 063d 8977 99be f136 b2be
00000050: 4f65 b03e a0b3 533f 36ac 303f ef36 033f
00000060: 17da 053f 6267 243f 0540 0e3e 5d08 da3e
00000070: fc4e 84be bb0c 07bf 6d24 a5be 14ce 9b3e
00000080: 1791 df3d be7c c3be 4bbb ecbe 064e 393d
00000090: 56b4 1bbf 406f cf3e b883 8d3e 4e2c 243f
000000a0: 092a 20be 0e6d 2b3f 1004 5cbe 45c7 723d
000000b0: d34c 7ebe 4210 b03e 82d8 013f af84 0cbf
000000c0: 3629 033f 0ce2 d2be d2df 02be 2fb2 003e
000000d0: 766c eabe cae9 87bf bb7a 813f 8762 74bf
000000e0: c2cc a43e e4a2 00bf 9356 573f c59d fe3e
000000f0: b4f5 273f 6506 d4be 7b0a 713f 8f69 303f
00000100: 69d4 263f 630d 20bf a250 3e3f 952d 4b3f
00000110: 2ff7 35bf 8cf6 fd3e 9941 253f b012 17bf
00000120: 4fee acbe 1264 183f 4829 123f f9d2 0e3f
00000130: c7eb 41be 0bfe ae3b 7b73 5abe b593 9dbe
00000140: cbec 7dbd b1ef d4be 89aa 88be e076 2a3f
00000150: 972a 48be 2fb4 033f f24f be3d 328d 1d3f
00000160: 2f64 79bf c1fa 10bf 7a7c 5dbe 0f6d 32bf
00000170: c6a7 0d3e 31a7 de3e 351d 503d 49da 54bf
00000180: c6f0 5abf 4faa 3d3f 8288 02bf ed83 423f
00000190: 99ce bd3e cbf6 373f 0a79 553e 07b8 c73d
000001a0: 4321 933e 48ac ac3e 2222 ed3d 39cc a0bd
000001b0: 26dc 403f a3e9 303f 4573 cebe 1861 4f3e
000001c0: 19a5 f83e 2bca 24bd 91ce 1b3e fa13 d43e
000001d0: 606a 12bf 86db 213e 0d46 34bd 452c 1bbf
000001e0: eea6 03be 82aa 1ebd 61a8 3ebf 9a10 b03d
000001f0: 8b61 e93e 996a 2bbf 1601 ab3c f546 1fbf
00000200: 42a7 2fbf e84d f4be c39c cebe 68bd 65bf
00000210: be3e f13e 3c5b 2abf 7717 3c3e 4e08 fbbd
00000220: 9087 3ebe 63a5 3b3e b97a 6fbf 5327 14be
00000230: 6379 cfbe c3be 41bf b321 1bbf 58f8 58bf
00000240: 9a64 063f fd49 52be 45cf 393f 9e7f 9fbb
00000250: 93de 593f bea3 07bf 4c85 39bf c2a6 313f
00000260: dbb8 b63e a98f 2bbd 4843 b33e 125e 1e3f
00000270: 1488 5e3f 464b 1f3e 9105 7ebe 0f22 793e
00000280: 609a c7be f7e4 213e 6ba3 23bf 442c f33c
00000290: 8994 793e 9d1a cc3e ab42 78bd c2ef 2c3e
000002a0: 0d66 bdbe 9e0b cf3c cd13 d03e d855 8a3e
000002b0: 311b fe3e a465 d8be b85a 8c3e ec69 d53e
000002c0: 9d64 3dbf 88a3 a3be b79f 103f 578e 3f3f
000002d0: 3e34 c33e c7cf 063e e55e 22be 8ab8 3cbe
000002e0: 4fc9 a9be e8c9 993e fd67 0fbf f229 733f
000002f0: 007d 073f dba7 83be 725b d5bd 2eea dc3d
00000300: 97f6 d33e b611 0dbc 9ed2 513f 6a17 26bf
00000310: 8153 5bbf b4a7 bcbe 6d30 99be 2958 2a3f
00000320: 104a 16bd 8ded d4be 34d9 03be 01e0 38be
00000330: fd5c c1bc 5580 6f3e 9f55 163e e0e8 34bf
00000340: 4bef a23e 30b0 023f 635d 61bf cdf7 8abe
00000350: d23f b63e dcc8 9ebe ef13 b63e 1506 273e
00000360: 9b13 4c3f e04f 2ebf b1f3 fbbe c211 273f
00000370: 28d8 383f 390d 0bbe 3099 afbe 13cf f5be
00000380: e938 053f 1ed5 143f 4aea f6be f1e0 073e
00000390: a784 0f3f 68b6 3abf 98dd c53e 3ac6 f73e
000003a0: 3429 a33e d1f7 0a3f 2140 3dbd 8a5c bc3e
000003b0: d909 5b3f 2401 b43e 94a7 e13d 0b6d cf3e
000003c0: 87ff 5f3f 236b 0bbf 3540 9dbe 4cc2 743f
000003d0: a15a b93e 5608 b0be 2026 3bbf 912b 203f
000003e0: db04 e43e bc94 85be 49fb 6cbc 752a 333e
000003f0: ecf5 5b3f b1e9 d83e 0db8 483f 6f53 963e
0.28176466 0.61363584 -0.25303805 0.6711865 0.063728735 0.039862406 -0.23635752 -0.8727703
-0.31876114 -0.32213175 -0.24482422 0.28330663 0.25742772 -0.30509147 0.08415048 -0.6470764
-0.07680975 0.032905832 -0.2997401 -0.34807542 0.34452292 0.8269596 0.69012773 0.51255697
0.52285904 0.6422025 0.13891609 0.42584506 -0.2584151 -0.527538 -0.32254353 0.30430663
0.109163456 -0.38181108 -0.46236643 0.045240425 -0.60822046 0.40514565 0.27639556 0.64130104
-0.15641035 0.6696328 -0.21485925 0.05927207 -0.24833994 0.34387404 0.5072099 -0.5488996
0.5123476 -0.41188085 -0.12780693 0.12567972 -0.45785874 -1.0618222 1.0115579 -0.9546284
0.32187468 -0.5024855 0.84116477 0.49729744 0.6560929 -0.4141113 0.94156617 0.6891107
0.6516786 -0.62520427 0.74341786 0.7936643 -0.710803 0.49602163 0.6455322 -0.5901289
-0.33775565 0.59527695 0.5709424 0.5579067 -0.18937598 0.005340343 -0.21333115 -0.30776754
-0.0619934 -0.4158912 -0.26692608 0.6658764 -0.19547497 0.51446813 0.09292592 0.6154357
-0.97418493 -0.5663262 -0.21629515 -0.6969766 0.13833532 0.43486932 0.050809104 -0.83145577
-0.8552364 0.74087995 -0.50989544 0.7598255 0.37071684 0.7186095 0.20846954 0.09751897
0.28736314 0.3372519 0.11578776 -0.078514524 0.7533592 0.691065 -0.4032232 0.20251882
0.4856346 -0.040231865 0.15215518 0.4142149 -0.57193565 0.15806398 -0.044012118 -0.60614425
-0.12856647 -0.038736828 -0.74475676 0.085969165 0.45582232 -0.6695953 0.020874541 -0.62217647
-0.6861459 -0.47715688 -0.40353975 -0.89742136 0.4711818 -0.6654546 0.18368326 -0.12257443
-0.186064 0.18324809 -0.93546635 -0.14468126 -0.40522298 -0.75681704 -0.60598296 -0.8475394
0.52497256 -0.20536037 0.72581893 -0.004867508 0.85105246 -0.52984226 -0.7246902 0.6939508
0.3568791 -0.041885052 0.3501227 0.6186229 0.8692639 0.15556058 -0.24806811 0.24329399
-0.38984966 0.1581 -0.6392123 0.029684193 0.24373068 0.39864054 -0.060610455 0.16888335
-0.3699192 0.025274094 0.40640107 0.2701862 0.4963012 -0.42265046 0.27412963 0.41682374
-0.7398165 -0.31960702 0.56493706 0.7482657 0.38125795 0.13165198 -0.15856512 -0.18429771
-0.331614 0.30036855 -0.5601805 0.9498588 0.5292511 -0.25714 -0.104178324 0.10786854
0.4139907 -0.00861018 0.81962 -0.6487948 -0.8567429 -0.36846697 -0.29919758 0.6654077
-0.036691725 -0.41587487 -0.12875825 -0.180542 -0.02360391 0.23388799 0.146811 -0.7066784
0.3182319 0.5105009 -0.8803312 -0.27142182 0.35595566 -0.3101262 0.35562083 0.16310914
0.79717416 -0.6809063 -0.4920936 0.6526147 0.7220483 -0.13579263 -0.3429656 -0.48009548
0.52039963 0.5813769 -0.48225623 0.13269402 0.56061786 -0.7293458 0.38645625 0.48393422
0.31867373 0.5428439 -0.046203736 0.36789352 0.855619 0.3515712 0.11018291 0.4051288
0.8749928 -0.5446035 -0.3071305 0.95608974 0.36201957 -0.3438136 -0.7310505 0.6256648
0.44534954 -0.26090038 -0.014464208 0.17496665 0.8592212 0.42365792 0.7840584 0.2936053

linear_stack.0.bias f4 [128]
00000000: b487 24bf a1eb 233f 10b8 43be 1bdc 1cbe
00000010: 2741 a53e 2ab0 33bf e2fb f13e c96e 2ebf
00000020: c21c 6a3e 4f73 b13e 83c4 763e f400 8ebd
00000030: 69d1 423f 3e33 963d 5caf 0dbe edd7 c83e
00000040: ee67 e6be 755a edbe ccc7 bf3e c028 1fbf
00000050: db6f 04bf b1f3 043f f9e3 eebe b66a c5bd
00000060: 7f4c 09bf b07b e73e 84e2 e2bd 24b3 dd3d
00000070: df25 0f3f 9040 bd3e 7d46 b8bd 3c21 a9bd
00000080: 5092 323f 56f0 c83e 412a f13e 84b8 353d
00000090: 6d10 db3e 6ee1 2abf 0431 9bbe 2b93 afbe
000000a0: a0ff 0dbd 6123 6bbd c97c 2bbf 858b 303e
000000b0: f14a 3abe 210f 2dbe dee5 2fbf 6099 0f3e
000000c0: e1ff 00be 80df 053e 9b19 d3bd 420e 183f
000000d0: ab20 1b3f 5332 82bd d7bc ca3d a6fd 86be
000000e0: 3ddb 0fbf eca4 0ebf 1b27 03be 2814 92bd
000000f0: 744c 233f 0715 f2be 5c70 0c3f f196 b13e
00000100: 50f5 163f c883 66bd d5f8 723e 3444 4e3e
00000110: ff0f 1bbf 4e4c 5e3e c734 c83e d72f 7f3e
00000120: 0ea3 86bd faa5 003f defe 75be d4fd 9bbe
00000130: b116 a33e cf32 c0bd e7cb 97bd 6db2 dd3e
00000140: 6e37 32bf edcf 33bf 39d0 d33e 432e 28bf
00000150: 3bec ce3e 45e2 963d 5c1e 2dbf 9892 b2be
00000160: 093a 5a3e 5688 c73e 2647 afbd 72e2 f1be
00000170: fe07 0cbd 82e4 89bd dcdf 8abd d1cd 0bbf
00000180: 9860 2dbf e51e 02be 1270 1e3e 3610 70be
00000190: bc19 c73e 3e79 5a3e cc6b 203f dcd4 213f
000001a0: 1b29 d5be ebc0 0ebe 0473 be3e 8d13 e9bc
000001b0: dec0 9d3e 1c96 43bd d73f 983d 0267 b03e
000001c0: 366c 16bf cb32 ae3e a7a2 b5be 23a8 14bf
000001d0: a972 043e a4b5 d2be f0b3 443e 7958 52bd
000001e0: d614 10be b484 0abe 9251 7bbd 81f0 58be
000001f0: 4eda 16bf 976d 7fbe e801 82bd 72e3 e63d
-0.64269567 0.64031416 -0.19113183 -0.15318339 0.3227627 -0.7019068 0.47262484 -0.68137795
0.22862533 0.34658286 0.24098401 -0.069337755 0.76100785 0.073339924 -0.13836426 0.39227238
-0.45001167 -0.46358076 0.3745712 -0.62171555 -0.5173318 0.51934344 -0.46658304 -0.09639494
-0.5363235 0.45211554 -0.11078361 0.10825184 0.5591716 0.3696332 -0.089978196 -0.08258292
0.69754505 0.39245862 0.4710255 0.04436542 0.4278597 -0.6675023 -0.30310833 -0.34291968
-0.03466761 -0.057406787 -0.6698728 0.17240722 -0.1819265 -0.16900302 -0.68710124 0.14023352
-0.1259761 0.1307354 -0.10307618 0.59396756 0.6059672 -0.06357255 0.098992996 -0.26365393
-0.56193906 -0.557204 -0.12807886 -0.07132751 0.63788533 -0.47281668 0.54858947 0.34685472
0.5896807 -0.05627802 0.23727734 0.20143205 -0.60571283 0.21708795 0.39102766 0.24920593
-0.06574069 0.5025326 -0.24023005 -0.30467093 0.3185325 -0.09384691 -0.07411938 0.4330019
-0.6961583 -0.70239145 0.413698 -0.6569559 0.40414605 0.07367376 -0.6762445 -0.34877467
0.21311201 0.38971204 -0.08558492 -0.47243077 -0.03418731 -0.067330375 -0.06780979 -0.54610926
-0.67725515 -0.12707098 0.15472439 -0.23443684 0.3888682 0.21335313 0.62664485 0.6321542
-0.41632923 -0.1394078 0.37197125 -0.028451705 0.30811208 -0.047750577 0.074340515 0.3445359
-0.58758867 0.34023127 -0.35475656 -0.58069056 0.12934364 -0.41154206 0.19209266 -0.051353905
-0.14070448 -0.13527185 -0.06135709 -0.21185495 -0.58926857 -0.24944149 -0.0634802 0.112738505

linear_stack.2.weight f4 [64, 128]
00000000: 9510 5b3d 8df7 68bd a335 38bd 9de4 acbd
00000010: 680a 82bd 7b92 8e3d a85e 0c3d 45a8 dfbc
00000020: 5db3 a3bd ed7d 38bd ad34 983d 6c39 7abc
00000030: b9ed 303b cacd 8fbc e2fd 9cbd 05c0 7d3d
00000040: a0b5 80bd bf53 4abd 3876 f8bc 759d 88bc
00000050: 8298 a13c 3d19 71bd 89ae bb3c 34c7 8d3d
00000060: c871 98bd c9ba 0d3d 7042 d0bb 8ba6 703c
00000070: a291 ed3c 9ed0 1c3c b561 b3bd a97a b03d
00000080: 13ce 4d3d af54 273d f2c7 8d3c 608c 58bc
00000090: 71a6 b4bc dc85 833c cd0a 913d 1c22 153d
000000a0: a5b0 3fbd 0618 a3bc 88fe 4b3c eb65 713d
000000b0: b306 b4bd 8e50 48bd 153f 21bd 447f 96bc
000000c0: 00c3 d8bc 922f e0bc 56bf 093d 1a82 9dbd
000000d0: b678 08bd 6132 83bd 1f1a 19bd cecd 80b9
000000e0: a2d5 073d 00b1 a83d 7175 8cbb 932d 33bc
000000f0: 267c 0e3d 7bda 0ebd b4e2 05bc 89d5 d93b
00000100: 8653 a7bd d296 81bc b89a c73c d5e8 10bd
00000110: 5f1d 5ebd 6f77 24bb 239f 0c3d 00e4 783d
00000120: 23ac 813d 4450 09bd 60a0 893d c0bf d0bc
00000130: dc11 913d 2419 dc3c 2d5b 9e3d 9df4 b5bc
00000140: 84f5 473d e3e4 60bd 7cce b1bd 84af a43c
00000150: 5e02 56bd 8b45 2c3a 3dda 9c3d 324d 37bc
00000160: d4ac 2d3d 0401 aebd abd2 233d c2cb 0b3d
00000170: fbae 73bd 0deb 453d e111 9b3c 0fef 803d
00000180: 525b 7e3d 8cf0 5dbd 8217 c23b 3f31 78bd
00000190: 5323 adbd b1c5 72bc 54a6 ac3d f562 8abc
000001a0: d700 153d 4ede 1e3b 0510 873c 4423 03bd
000001b0: 73bb 8cbd fd8d 54bb 00ba 7fbd a0ad 99bd
000001c0: dd18 5a3d b025 80bd f9e0 ab3d 7ae0 04bd
000001d0: 1853 863d 17ef 05bd 75e8 60bd bab2 3abd
000001e0: 6c45 69bc 112d 4cbc 1261 1e3d 469e 88bd
000001f0: 83c7 463d b72d be3a 2fca 71bd 468a a4bd
00000200: c38d 7bbd b99e 8f39 5cdb 9abd 4df4 403d
00000210: 6f40 99bd 2d54 14bd 8bd0 a23c ba25 03bd
00000220: 3724 813d 7aba 8e3d cfbc 803c 1bde 863d
00000230: dd37 9abd 4dc5 e8b8 11ea b0bd 86a3 5ebd
00000240: 6849 4c3d 74ba 573b 95d9 ab3d 78a0 373d
00000250: 9e15 a1bd 1ca5 a8b9 4e2c 70bd 556e a63d
00000260: d1c4 983d e2ca 4abd 75a8 a63d 5308 ed3c
00000270: 969d 973d b95e a9bd 2744 a3bd c6a2 363d
00000280: 50c5 cdbc fa2d ab3d cf9b 933d 1bcc d33c
00000290: 9be9 e43c ed2e 89bd 1b93 f33c cbda 46bd
000002a0: 9653 6dbd fdea cdbb 3f7e 3cbd 131f 963b
000002b0: 19fb 923b 34f9 5cbd 38be 7dbd 1b7b aebd
000002c0: f29d 96bd 307c 7cbc 4435 50bc e44e 19bd
000002d0: c5ad 55bd 50de 6dbd c679 68bd 0af3 103d
000002e0: 3520 9e3d 316c 8cbd 1582 573d ec46 003b
000002f0: b532 8c3d 2859 5abd 0eda 3b3d 9283 45bc
00000300: 997a 9abd dabe cebc 6168 823d 0864 3cbd
00000310: 5291 5dbc a2bb 773d ddab 323c d1d9 773d
00000320: 373a 61bd 1688 3fbd 0af2 35bd 0bd9 51bd
00000330: a704 783d bad8 df3b a622 5dbd cbe8 633d
00000340: 0b88 2ebc e693 c1bc f39c 87bd fe68 ab3d
00000350: f667 b3bd 8758 663d 072e ad3d c47b 39bc
00000360: 3526 8dbd 19e5 16bd 4804 a5bc b2d1 b43d
00000370: ee6c 00bc 6a2c 893d 72b0 5bb9 265c 47bd
00000380: 824d aa3d 4b1a 053d a999 463d 8024 753d
00000390: afa0 5ebd 0eb9 bbbc 8921 8bbd dd22 6dbd
000003a0: 3fd8 85bd d919 32bd aa58 9fbd 8d88 0fbd
000003b0: 9c63 25bd 96c2 1c3d 82d8 a4bc d9e2 89bd
000003c0: e281 57bb c4b9 90bc 2093 523c 3ebc d33b
000003d0: b6f6 123d a9c5 84bd 2fcf 80bd 0fc4 133d
000003e0: 7520 f53b 1ca1 5fbd d20f 18bc 6d5a 253d
000003f0: d254 203d 5437 953d 3476 7b3d 100c a03d
0.05348261 -0.056876708 -0.044973027 -0.08442042 -0.06349641 0.06961533 0.03426996 -0.027301917
-0.07993195 -0.045041967 0.07431922 -0.0152724795 0.0026997162 -0.017554183 -0.07665612 0.061950702
-0.06284642 -0.049396273 -0.030329809 -0.016676644 0.019726042 -0.05886196 0.022910373 0.069227606
-0.07443577 0.03460196 -0.006355576 0.014688144 0.029000107 0.009571223 -0.087588705 0.086171456
0.050245356 0.040852245 0.017307255 -0.013217062 -0.022052022 0.01605504 0.07082138 0.036409482
-0.04679932 -0.019908916 0.012450822 0.058935087 -0.0879034 -0.048904948 -0.0393668 -0.018371232
-0.02646017 -0.027366433 0.033629738 -0.076908305 -0.033318244 -0.064060934 -0.037378427 -0.000245674
0.03316272 0.08236885 -0.004286461 -0.010936159 0.034786366 -0.034876328 -0.008171726 0.00664777
-0.08170228 -0.015818987 0.024365768 -0.035378296 -0.05422723 -0.0025095602 0.034331452 0.060764313
0.063316606 -0.033523813 0.06720042 -0.025482059 0.070834845 0.026867457 0.07732234 -0.022211367
0.048818126 -0.054905783 -0.08681962 0.020103224 -0.05224835 0.0006571642 0.07658813 -0.011187838
0.04240115 -0.084962875 0.03999583 0.034129865 -0.059493046 0.048319865 0.018929424 0.06295597
0.06209881 -0.05418448 0.0059232125 -0.06059384 -0.08454003 -0.014817641 0.08430162 -0.01689289
0.036377754 0.002424139 0.01648713 -0.032016054 -0.068716906 -0.0032433264 -0.062433243 -0.075038195
0.053246368 -0.06257188 0.083925195 -0.03244064 0.065588176 -0.032698717 -0.05490919 -0.045580603
-0.014237743 -0.012461917 0.038666792 -0.06670813 0.048530113 0.0014509474 -0.059030708 -0.08034186
-0.06141449 0.00027393343 -0.07561371 0.047107983 -0.07482993 -0.03621309 0.019874832 -0.0320184
0.063057356 0.06969161 0.015715031 0.06585332 -0.07530186 -0.00011099372 -0.086383946 -0.054355167
0.049874693 0.0032917531 0.0839111 0.04483077 -0.07865451 -0.00032166473 -0.058636002 0.08126513
0.07459415 -0.04950989 0.081375994 0.028934633 0.07403104 -0.0827002 -0.079719834 0.044588827
-0.0251185 0.08358379 0.072074525 0.025854161 0.027943423 -0.066984035 0.029733231 -0.0485485
-0.057941042 -0.0062841163 -0.046018835 0.004581341 0.0044854996 -0.053948596 -0.061948985 -0.08519574
-0.073543444 -0.015410468 -0.012708012 -0.03742875 -0.052167673 -0.05807334 -0.056756757 0.03538803
0.07720987 -0.068565734 0.05261429 0.0019573523 0.06845609 -0.053307682 0.04586225 -0.012055295
-0.07542915 -0.02523749 0.06367565 -0.045993835 -0.013523417 0.060481675 0.010905233 0.06051046
-0.05498716 -0.04676064 -0.04442028 -0.05123238 0.06055131 0.0068312557 -0.05398812 0.05564193
-0.010652552 -0.023630094 -0.066217326 0.08369635 -0.08760063 0.05623677 0.08456045 -0.011321012
-0.06892053 -0.03683958 -0.020143643 0.08829059 -0.007838471 0.066979244 -0.00020951199 -0.048671864
0.08315565 0.032495778 0.048486385 0.059849262 -0.05435246 -0.02291539 -0.06793506 -0.057894576
-0.06535386 -0.04348168 -0.07780583 -0.035042334 -0.040378198 0.03827151 -0.02012277 -0.06732721
-0.0032883813 -0.017666705 0.01285246 0.006461649 0.035879813 -0.06483013 -0.06289517 0.036075648
0.007480676 -0.054597005 -0.009281116 0.04036944 0.03914339 0.072859436 0.061392024 0.07814801

linear_stack.2.bias f4 [64]
00000000: 8c19 ac3c de6c f1bc 13af 32bd 95a7 68bd
00000010: 5511 ab3b e99f 3bbb 9e33 cc3c 3935 39bd
00000020: 2c79 94bd 8777 563d a3c1 b33d d720 9a3d
00000030: 2bcd 0bbd 3773 db3c 3905 873d e210 dd3d
00000040: be1c 5bbc 050f 50bd e7f9 c13d c788 c63d
00000050: f44a d63d 3f5c bdbd f78e 83bb c0e2 f93c
00000060: 525b 1cbd ccf4 d13d 05eb 033e cbe3 8d3d
00000070: 0df3 8dbc 1eb8 80bd f3ab 8fbd 226c 393d
00000080: 70f7 423e 63f5 13bd fd4a a63d 1db0 0cbc
00000090: 899c aa3d 120c cabc 8870 283c e4cb 343d
000000a0: 3d4b 143d 7325 05bc 494b 703c 8520 983d
000000b0: 721e a4bc 0f7c f33d 9490 ecbc 5532 493d
000000c0: 8b68 8ebc 2db3 363d e630 87bd 321e f8bd
000000d0: 3783 413d 3271 723d 55c1 2b3d 8668 07be
000000e0: 836e 3f3d 5194 873c 979b 73bb 4d4f efbc
000000f0: 1e0c 573e 2231 883c f0a6 893d 804f 253e
0.021008275 -0.029470857 -0.043623995 -0.056800444 0.005220572 -0.002862925 0.024926957 -0.045216773
-0.07249674 0.052360084 0.08777168 0.07525795 -0.03413121 0.026788337 0.06592793 0.10794236
-0.013373552 -0.050795574 0.09471493 0.09694057 0.10463515 -0.0924611 -0.0040148455 0.03050363
-0.038173027 0.102517694 0.12882622 0.06928214 -0.01732781 -0.062851176 -0.070152186 0.04526914
0.19039702 -0.03612269 0.08119772 -0.008586911 0.08330638 -0.024663959 0.010280736 0.044139758
0.036204565 -0.008126604 0.014666387 0.074280776 -0.020034049 0.11888897 -0.028877534 0.049120266
-0.017383834 0.04460447 -0.066011235 -0.12115134 0.047244277 0.059189983 0.041932423 -0.13223466
0.04673625 0.016550215 -0.0037171596 -0.029212618 0.21000716 0.01662499 0.06721294 0.16143608

linear_stack.4.weight f4 [32, 64]
00000000: d08c cf3c 26b0 8ebd b9e4 423d e03d abbe
00000010: 1e92 d5bd 36be 4d3e af1b be3c 7421 adbd
00000020: d4a4 e43d cdee f3bd 844d 833e 8cb3 48bd
00000030: dd1b 96be 7894 c8bd 3d09 ae3e 6b82 6f3e
00000040: 180b b33e 3f58 983d 78e7 a2bd d7b6 573e
00000050: 9740 1a3d e0b5 5a3d eaa8 d2bd 67c0 813c
00000060: 02a3 bebd a26d a93d 9c7b 7d3e 784b a2bc
00000070: b1cb 1abe 1397 e6bd c016 92bd 0c10 1ebd
00000080: 8b01 833e 7f91 e23d 92b0 97bd e6b9 a8be
00000090: a00b 323e 4823 96be 54b3 af3c 68f9 653e
000000a0: dec1 a7be a9ec 98bd 82ab 94bd 827f 023e
000000b0: 2681 913d 8b70 9bbe beb0 f33d bfa9 6d3e
000000c0: ffac a9be 8c15 433e 7c64 513d 4dc3 363e
000000d0: 443b 343d 50aa 4bbd 92fb d4bd f510 ee3d
000000e0: 4676 98be 8d02 a53d a4a7 b43e 2052 a5bc
000000f0: 28fe c2bc 7d2f f9bd 1000 6c3c a7c1 a53e
00000100: 823e d13d 84d0 a6bd 65c2 83bd e50f 283e
00000110: 8009 b83b c37d f1bd b8d6 cebd a4eb 6ebd
00000120: 2881 9a3c 656f cd3c 135d 33bd 3aa2 833c
00000130: eb55 5d3d 3017 01bc 6aef 033d 8691 e93c
00000140: d6a1 c0bd 00ff d63d fc63 37be 53ad 12bd
00000150: 59c2 bcbd 53a4 e63d 5e20 87bd 1948 113c
00000160: e2bc 803c 01f5 6ebd 7dbf 24bd badd 3f3d
00000170: 2312 ad3d 5521 6abd f04e 3cbd 1003 4ebc
00000180: fb13 183e 1c9d a13d 88d2 003d cb5a afbd
00000190: 6929 79bd 9d04 db3d 1cea 473d c8f1 163e
000001a0: 8b7b 173d c821 f43d e8f8 833c 0cc2 403d
000001b0: fa95 fabd 0c7b 8fbd 1053 8dbd 4ce6 08be
000001c0: 6583 d13d 7afa 3fbd 9cfa 9abd 9318 c83d
000001d0: 0ece cbbd b9f1 71bd 5ffc 57be 2542 bbbd
000001e0: f1ae 303e 3f0d febd f818 f03d ef69 c43c
000001f0: 0a04 fb3d db59 1bbd a2bd b73d 64ef 88bd
00000200: 70df 793c 988e 853d ea21 8d3d d2bc 433c
00000210: 7451 d03d e703 0bbd 4166 08be 521c 0fbd
00000220: 807a 323c 55e6 9b3c 00b9 b33d 618e c2bc
00000230: 89ca ef3d 862c c2bd 9403 02bd f29a 3dbd
00000240: f968 fdbd 38c9 03bd eaac adbd f855 b4bc
00000250: 695b a2bc c02f f2bd 4295 e93d 0e82 093e
00000260: c6a3 f1bc 7dfd e53d 9c31 1abe 13c9 a93d
00000270: 2728 853c 3131 febc 406c 35bb 7cfb 3abd
00000280: 61c2 643e 20db 0ebe 2095 d7bd 018a 9c3d
00000290: d693 233c b645 8ebd f767 bdbd 7b91 7d3e
000002a0: e152 5bbe 1783 8b3d fc0a 2c3d 13b0 253e
000002b0: bdb4 203d 0c80 45bd a659 e83d 6d2f 1dbe
000002c0: 0f5a 0bbd cb85 bc3d 2e0b 853d 4f21 e93d
000002d0: 2081 4b3d a849 063e 108e 133b bbb1 32bd
000002e0: 0d64 9f3d 4838 4cbd c65f df3d 4030 e8bc
000002f0: cd6d ac3e 77cc e4bd fe05 b73d 8327 3c3e
00000300: fe75 a7bd 545a 36bd d00b 0ebc 7340 013e
00000310: 80ad dc3c 3291 65bd 6d7b b03d 6476 9abd
00000320: 283d ccbc b024 ea3d d15c 823d 89f9 cbbb
00000330: 18a4 24bd 5e62 c5bd e913 a9bd 1bb4 31be
00000340: 43ac 323e 8654 1b3e 30e7 273e 2900 3bbe
00000350: 7630 57bc c322 543d 4c4b 08bd ad1d efbd
00000360: bc7f d53d d56c 573c eab3 d9bd 0578 aa3d
00000370: 06e2 b63d d4c2 0a3d a27c f0bd 8033 c4bd
00000380: e7e6 94be 7898 343e 76bd 9fbd 72e4 193e
00000390: 7740 e43d db00 493c 775b be3c cd72 5dbc
000003a0: 4a0e af3d 739f 86bd c848 98bc 8ebb 98bd
000003b0: e93f 8a3c 556b 2a3e 7487 e5bd 9ddd 58bd
000003c0: 0ef5 ab3d e671 14be c04f 573c e570 9bbc
000003d0: ac31 96bd 1faf 953b 7ead f63d 944a 323b
000003e0: a026 4fbd f081 50bc af82 acbc 4d72 083d
000003f0: 745b 3abd d908 583e 1c23 82bd e8e3 53be
0.0253357 -0.069671914 0.04758141 -0.33445644 -0.1042826 0.20092091 0.02320656 -0.08453646
0.11164251 -0.11910782 0.25645077 -0.048999354 -0.29318133 -0.09793943 0.33991423 0.23389594
0.349694 0.074387066 -0.079543054 0.21065842 0.037659254 0.053396106 -0.10286124 0.015838815
-0.09308435 0.08272864 0.24754184 -0.019811377 -0.15116765 -0.11259284 -0.071332455 -0.038589522
0.25587115 0.110629074 -0.07406725 -0.3295433 0.17387247 -0.29323792 0.021447815 0.22458422
-0.32765096 -0.07467014 -0.07259275 0.12743953 0.07104711 -0.303593 0.11898945 0.23209284
-0.33139798 0.19051188 0.05112122 0.17847939 0.044001833 -0.04972297 -0.10399546 0.11624328
-0.29777735 0.08057127 0.3528415 -0.020180762 -0.023802832 -0.12167261 0.014404312 0.32374308
0.102170005 -0.0814524 -0.06433562 0.16412313 0.005616367 -0.11791565 -0.10099548 -0.058330193
0.018860415 0.025077531 -0.043789934 0.016068567 0.054037016 -0.0078790635 0.032210745 0.028511774
-0.09405868 0.10497856 -0.17909235 -0.035809826 -0.092167564 0.11261811 -0.065979704 0.008867287
0.015715066 -0.058339123 -0.04022168 0.046842314 0.08450725 -0.057160694 -0.04597372 -0.012573972
0.14851372 0.07891294 0.03145078 -0.08562239 -0.060830507 0.10694239 0.04880725 0.1474067
0.036983054 0.11920506 0.016109899 0.047060058 -0.12235637 -0.07005891 -0.069006085 -0.13369101
0.1023014 -0.046869732 -0.07567331 0.09770312 -0.09951411 -0.059068415 -0.21092366 -0.091434754
0.17254235 -0.1240487 0.117235124 0.023976294 0.1225663 -0.03792749 0.089717165 -0.06686285
0.015251026 0.06521338 0.06891234 0.011946874 0.10171786 -0.03393927 -0.13320257 -0.034939118
0.010893464 0.01903073 0.0877552 -0.023749532 0.117085524 -0.094811484 -0.031741694 -0.046290345
-0.123735376 -0.03217432 -0.08480246 -0.02201365 -0.019818978 -0.11825514 0.11405422 0.13428518
-0.029497039 0.1122999 -0.15057987 0.08290305 0.016254498 -0.031029316 -0.002768293 -0.04564999
0.22339775 -0.13950777 -0.1052649 0.0764351 0.009983977 -0.0694689 -0.09248345 0.24762528
-0.21418335 0.06812113 0.042002663 0.16180448 0.039234865 -0.04821782 0.11345224 -0.15350123
-0.034021433 0.092052065 0.06496273 0.11383306 0.04968369 0.13114035 0.0022515096 -0.04362653
0.07782755 -0.04985836 0.10906939 -0.02834332 0.3367752 -0.11171811 0.0893669 0.18374448
-0.08176802 -0.044519737 -0.0086698085 0.12622242 0.0269382 -0.056046672 0.086172916 -0.075421125
-0.024931505 0.11432779 0.063653596 -0.0062248153 -0.040195554 -0.09637903 -0.08255751 -0.17353861
0.17448525 0.15168962 0.16396785 -0.1826178 -0.013134113 0.051790964 -0.033274934 -0.11675582
0.10424754 0.013148506 -0.10630019 0.08323673 0.08929829 0.03387721 -0.11742522 -0.09580135
-0.29082415 0.17636287 -0.07799809 0.15028551 0.11145108 0.01226827 0.023236973 -0.01351614
0.08547647 -0.06573381 -0.018589392 -0.07457648 0.016876178 0.16642506 -0.11207476 -0.052945722
0.0839635 -0.14496574 0.0131415725 -0.01897473 -0.07333693 0.004567995 0.1204481 0.0027205097
-0.050573945 -0.012726292 -0.021058409 0.03331213 -0.045497373 0.21097125 -0.06354353 -0.20692408

linear_stack.4.bias f4 [32]
00000000: 1735 143e 013e 38bd 147c 9c3d e820 29bd
00000010: 962f 35bc a572 123e ffc7 263e e873 ba3d
00000020: 030b 993d 037e edbd c377 d73d 9db9 ae3a
00000030: e7f8 523e 5f10 fa3c eba7 a93e d5d7 06bd
00000040: 8921 dd3d 29ee 12be 4bbc dc3d 076e 9c3d
00000050: a38c a0bd 4663 b23d 7829 8f3e a306 c53c
00000060: a8c4 3dbe 92a4 e23d 60b2 5f3d bb7a 163e
00000070: 74d1 0dbe 53f9 083d 316a c03d 5341 c53c
0.14473377 -0.044981007 0.076408535 -0.041291147 -0.011058709 0.14301546 0.1628723 0.091041386
0.074728034 -0.115963005 0.105208896 0.0013330464 0.20602761 0.030525384 0.33135924 -0.032920677
0.10797412 -0.14348663 0.107781015 0.076381736 -0.07839324 0.08710341 0.27961326 0.024051016
-0.1853205 0.110665455 0.05461347 0.14695255 -0.13849431 0.0334409 0.093952544 0.024079

linear_stack.6.weight f4 [3, 32]
00000000: a21c b43c 2028 99bd 4158 c7be 27e5 ec3e
00000010: 1076 693b 81f9 7a3e 4d9d b2be a79d a13e
00000020: 2e57 a73e 248e 8fbd f07f d23e 0ab4 06be
00000030: 36c5 20bf 9ecc ca3e 698b 9d3f 915d dc3d
00000040: ae15 95bd 9c93 89be ed60 27bf 304d cbbe
00000050: c2de 933e 9ddb 333f c70a 53bf cfbc cebe
00000060: 434f 6fbd ce1d 1dbe b140 18be 3bc3 5fbf
00000070: e8cc 87be 06d5 ecbc 4a3e f83e 2772 4dbe
00000080: 9153 5f3f 4dd6 49be ca23 9b3e 8f26 bfbd
00000090: d564 2b3d d436 203f c54d 973e 51f3 013f
000000a0: ff0f 073f d4fc f3bb 2261 443e 1216 dbbd
000000b0: 2158 0bbf 5feb 94bc 60cb d8bf f81e 323d
000000c0: f288 0a3f 92bc 6e3e 0fab 3a3f 873b fd3e
000000d0: 1e16 d4bc 873c f0be 7d6e e83d 8086 af3d
000000e0: edf6 fc3d 2af3 78bc e777 d2bd 1248 5bbd
000000f0: c662 2e3e 4d3e ad3c 6bc6 b1be 6d23 8d3e
00000100: 1e1c 82bf f28d b13e be2f c73e 7d8d cdbe
00000110: e7cc d53d df6c 3abf c375 b6bd 6255 60bf
00000120: 4387 27bf c8d8 37bd a208 7dbe 29e8 803c
00000130: 0593 713f 190f abbe b19f e13e 9086 183d
00000140: c399 38bf c2b4 273e 6afd b83d b2bc 65be
00000150: 37ae 94be 63a9 abbe d753 4c3f 4d4e 053f
00000160: e6ec 3dbd 4309 353e 60de 0bbe 70f5 103f
00000170: 0f15 96bd ca77 9cbd c541 e23d 76e0 7dbc
0.02198631 -0.07478356 -0.3893452 0.4626858 0.003562335 0.2450924 -0.34885636 0.31565592
0.326837 -0.07009533 0.41113234 -0.13154617 -0.6280092 0.39609236 1.230817 0.10760034
-0.07279526 -0.2687043 -0.6538227 -0.39707327 0.28880888 0.7025698 -0.8243832 -0.40378425
-0.0584252 -0.15343401 -0.14868428 -0.87407273 -0.2652352 -0.028910171 0.48485023 -0.20063077
0.8723689 -0.19710656 0.30300742 -0.09333526 0.041844208 0.6258366 0.2955152 0.50761896
0.52758783 -0.007445911 0.19177678 -0.10697569 -0.5443135 -0.01817864 -1.6937065 0.043486565
0.5411521 0.23314121 0.72917265 0.49459478 -0.025889453 -0.4692118 0.11349199 0.08570576
0.12351785 -0.015194694 -0.10276776 -0.05353553 0.17029867 0.021147871 -0.34721693 0.2756609
-1.0164831 0.34678608 0.38903612 -0.4014701 0.10439473 -0.72822374 -0.0890918 -0.87630284
-0.6544077 -0.044884473 -0.24710324 0.015735703 0.9436496 -0.33409956 0.44067147 0.037237704
-0.7210962 0.16377547 0.0903271 -0.22435263 -0.29039165 -0.3352767 0.7981543 0.520726
-0.046368502 0.17679314 -0.13659048 0.5662451 -0.07328235 -0.076400355 0.11047701 -0.01549541

linear_stack.6.bias f4 [3]
00000000: 29ab 373e 005b 18be 8e96 7e3e
0.17936386 -0.14878464 0.2486212
